…
      (affine): FullyConnectedLayer()
    )
  )
  (b16): SynthesisBlock(
    (ffc_skip): ModuleList()
    (conv0): SynthesisLayer(
      (affine): FullyConnectedLayer()
    )
    (conv1): SynthesisLayer(
      (affine): FullyConnectedLayer()
    )
    (torgb): ToRGBLayer(
      (affine): FullyConnectedLayer()
    )
  )
  (b32): SynthesisBlock(
    (ffc_skip): ModuleList(
      (0): FFCSkipLayer(            #用于融合局部特征（local features）和全局特征（global features）
        (ffc_act): FFCBlock(
          (ffc_block): FFCResnetBlock(
            (conv1): FFC_BN_ACT(
              (ffc): FFC(
                (convl2l): Conv2d(128, 128, kernel_size=(3, 3), stride=(1, 1), padding=(1, 1), bias=False, padding_mode=reflect)        #用于处理局部的空间特征
                (convl2g): Conv2d(128, 384, kernel_size=(3, 3), stride=(1, 1), padding=(1, 1), bias=False, padding_mode=reflect)        #用于提取全局特征
                (convg2l): Conv2d(384, 128, kernel_size=(3, 3), stride=(1, 1), padding=(1, 1), bias=False, padding_mode=reflect)        #使用了**频域变换（傅里叶变换）**来捕捉全局上下文信息
                (convg2g): SpectralTransform(
                  (downsample): Identity()
                  (conv1): Sequential(
                    (0): Conv2d(384, 192, kernel_size=(1, 1), stride=(1, 1), bias=False)
                    (1): ReLU(inplace=True)
                  )
                  (fu): FourierUnit(
                    (conv_layer): Conv2d(384, 384, kernel_size=(1, 1), stride=(1, 1), bias=False)
                    (relu): ReLU()
                  )
                  (lfu): FourierUnit(
                    (conv_layer): Conv2d(384, 384, kernel_size=(1, 1), stride=(1, 1), bias=False)
                    (relu): ReLU()
                  )
                  (conv2): Conv2d(192, 384, kernel_size=(1, 1), stride=(1, 1), bias=False)
                )
                (gate): Conv2d(512, 2, kernel_size=(1, 1), stride=(1, 1))
              )
              (act_l): ReLU(inplace=True)
              (act_g): ReLU(inplace=True)
            )
            (conv2): FFC_BN_ACT(
              (ffc): FFC(
                (convl2l): Conv2d(128, 128, kernel_size=(3, 3), stride=(1, 1), padding=(1, 1), bias=False, padding_mode=reflect)
                (convl2g): Conv2d(128, 384, kernel_size=(3, 3), stride=(1, 1), padding=(1, 1), bias=False, padding_mode=reflect)
                (convg2l): Conv2d(384, 128, kernel_size=(3, 3), stride=(1, 1), padding=(1, 1), bias=False, padding_mode=reflect)
                (convg2g): SpectralTransform(
                  (downsample): Identity()
                  (conv1): Sequential(
                    (0): Conv2d(384, 192, kernel_size=(1, 1), stride=(1, 1), bias=False)
                    (1): ReLU(inplace=True)
                  )
                  (fu): FourierUnit(
                    (conv_layer): Conv2d(384, 384, kernel_size=(1, 1), stride=(1, 1), bias=False)
                    (relu): ReLU()
                  )
                  (lfu): FourierUnit(
                    (conv_layer): Conv2d(384, 384, kernel_size=(1, 1), stride=(1, 1), bias=False)
                    (relu): ReLU()
                  )
                  (conv2): Conv2d(192, 384, kernel_size=(1, 1), stride=(1, 1), bias=False)
                )
                (gate): Conv2d(512, 2, kernel_size=(1, 1), stride=(1, 1))
              )
              (act_l): ReLU(inplace=True)
              (act_g): ReLU(inplace=True)
            )
          )
          (concat_layer): ConcatTupleLayer()
        )
      )
    )
    (conv0): SynthesisLayer(
      (affine): FullyConnectedLayer()
    )
    (conv1): SynthesisLayer(
      (affine): FullyConnectedLayer()
    )
    (torgb): ToRGBLayer(
      (affine): FullyConnectedLayer()
    )
  )
  (b64): SynthesisBlock(
    (ffc_skip): ModuleList(
      (0): FFCSkipLayer(
        (ffc_act): FFCBlock(
          (ffc_block): FFCResnetBlock(
            (conv1): FFC_BN_ACT(
              (ffc): FFC(
                (convl2l): Conv2d(64, 64, kernel_size=(3, 3), stride=(1, 1), padding=(1, 1), bias=False, padding_mode=reflect)
                (convl2g): Conv2d(64, 192, kernel_size=(3, 3), stride=(1, 1), padding=(1, 1), bias=False, padding_mode=reflect)
                (convg2l): Conv2d(192, 64, kernel_size=(3, 3), stride=(1, 1), padding=(1, 1), bias=False, padding_mode=reflect)
                (convg2g): SpectralTransform(
                  (downsample): Identity()
                  (conv1): Sequential(
                    (0): Conv2d(192, 96, kernel_size=(1, 1), stride=(1, 1), bias=False)
                    (1): ReLU(inplace=True)
                  )
                  (fu): FourierUnit(
                    (conv_layer): Conv2d(192, 192, kernel_size=(1, 1), stride=(1, 1), bias=False)
                    (relu): ReLU()
                  )
                  (lfu): FourierUnit(
                    (conv_layer): Conv2d(192, 192, kernel_size=(1, 1), stride=(1, 1), bias=False)
                    (relu): ReLU()
                  )
                  (conv2): Conv2d(96, 192, kernel_size=(1, 1), stride=(1, 1), bias=False)
                )
                (gate): Conv2d(256, 2, kernel_size=(1, 1), stride=(1, 1))
              )
              (act_l): ReLU(inplace=True)
              (act_g): ReLU(inplace=True)
            )
            (conv2): FFC_BN_ACT(
              (ffc): FFC(
                (convl2l): Conv2d(64, 64, kernel_size=(3, 3), stride=(1, 1), padding=(1, 1), bias=False, padding_mode=reflect)
                (convl2g): Conv2d(64, 192, kernel_size=(3, 3), stride=(1, 1), padding=(1, 1), bias=False, padding_mode=reflect)
                (convg2l): Conv2d(192, 64, kernel_size=(3, 3), stride=(1, 1), padding=(1, 1), bias=False, padding_mode=reflect)
                (convg2g): SpectralTransform(
                  (downsample): Identity()
                  (conv1): Sequential(
                    (0): Conv2d(192, 96, kernel_size=(1, 1), stride=(1, 1), bias=False)
                    (1): ReLU(inplace=True)
                  )
                  (fu): FourierUnit(
                    (conv_layer): Conv2d(192, 192, kernel_size=(1, 1), stride=(1, 1), bias=False)
                    (relu): ReLU()
                  )
                  (lfu): FourierUnit(
                    (conv_layer): Conv2d(192, 192, kernel_size=(1, 1), stride=(1, 1), bias=False)
                    (relu): ReLU()
                  )
                  (conv2): Conv2d(96, 192, kernel_size=(1, 1), stride=(1, 1), bias=False)
                )
                (gate): Conv2d(256, 2, kernel_size=(1, 1), stride=(1, 1))
              )
              (act_l): ReLU(inplace=True)
              (act_g): ReLU(inplace=True)
            )
          )
          (concat_layer): ConcatTupleLayer()
        )
      )
    )
    (conv0): SynthesisLayer(
      (affine): FullyConnectedLayer()
    )
    (conv1): SynthesisLayer(
      (affine): FullyConnectedLayer()
    )
    (torgb): ToRGBLayer(
      (affine): FullyConnectedLayer()
    )
  )
  (b128): SynthesisBlock(
    (ffc_skip): ModuleList(
      (0): FFCSkipLayer(
        (ffc_act): FFCBlock(
          (ffc_block): FFCResnetBlock(
            (conv1): FFC_BN_ACT(
              (ffc): FFC(
                (convl2l): Conv2d(32, 32, kernel_size=(3, 3), stride=(1, 1), padding=(1, 1), bias=False, padding_mode=reflect)
                (convl2g): Conv2d(32, 96, kernel_size=(3, 3), stride=(1, 1), padding=(1, 1), bias=False, padding_mode=reflect)
                (convg2l): Conv2d(96, 32, kernel_size=(3, 3), stride=(1, 1), padding=(1, 1), bias=False, padding_mode=reflect)
                (convg2g): SpectralTransform(
                  (downsample): Identity()
                  (conv1): Sequential(
                    (0): Conv2d(96, 48, kernel_size=(1, 1), stride=(1, 1), bias=False)
                    (1): ReLU(inplace=True)
                  )
                  (fu): FourierUnit(
                    (conv_layer): Conv2d(96, 96, kernel_size=(1, 1), stride=(1, 1), bias=False)
                    (relu): ReLU()
                  )
                  (lfu): FourierUnit(
                    (conv_layer): Conv2d(96, 96, kernel_size=(1, 1), stride=(1, 1), bias=False)
                    (relu): ReLU()
                  )
                  (conv2): Conv2d(48, 96, kernel_size=(1, 1), stride=(1, 1), bias=False)
                )
                (gate): Conv2d(128, 2, kernel_size=(1, 1), stride=(1, 1))
              )
              (act_l): ReLU(inplace=True)
              (act_g): ReLU(inplace=True)
            )
            (conv2): FFC_BN_ACT(
              (ffc): FFC(
                (convl2l): Conv2d(32, 32, kernel_size=(3, 3), stride=(1, 1), padding=(1, 1), bias=False, padding_mode=reflect)
                (convl2g): Conv2d(32, 96, kernel_size=(3, 3), stride=(1, 1), padding=(1, 1), bias=False, padding_mode=reflect)
                (convg2l): Conv2d(96, 32, kernel_size=(3, 3), stride=(1, 1), padding=(1, 1), bias=False, padding_mode=reflect)
                (convg2g): SpectralTransform(
                  (downsample): Identity()
                  (conv1): Sequential(
                    (0): Conv2d(96, 48, kernel_size=(1, 1), stride=(1, 1), bias=False)
                    (1): ReLU(inplace=True)
                  )
                  (fu): FourierUnit(
                    (conv_layer): Conv2d(96, 96, kernel_size=(1, 1), stride=(1, 1), bias=False)
                    (relu): ReLU()
                  )
                  (lfu): FourierUnit(
                    (conv_layer): Conv2d(96, 96, kernel_size=(1, 1), stride=(1, 1), bias=False)
                    (relu): ReLU()
                  )
                  (conv2): Conv2d(48, 96, kernel_size=(1, 1), stride=(1, 1), bias=False)
                )
                (gate): Conv2d(128, 2, kernel_size=(1, 1), stride=(1, 1))
              )
              (act_l): ReLU(inplace=True)
              (act_g): ReLU(inplace=True)
            )
          )
          (concat_layer): ConcatTupleLayer()
        )
      )
    )
    (conv0): SynthesisLayer(
      (affine): FullyConnectedLayer()
    )
    (conv1): SynthesisLayer(
      (affine): FullyConnectedLayer()
    )
    (torgb): ToRGBLayer(
      (affine): FullyConnectedLayer()
    )
  )
  (b256): SynthesisBlock(
    (ffc_skip): ModuleList(
      (0): FFCSkipLayer(
        (ffc_act): FFCBlock(
          (ffc_block): FFCResnetBlock(
            (conv1): FFC_BN_ACT(
              (ffc): FFC(
                (convl2l): Conv2d(16, 16, kernel_size=(3, 3), stride=(1, 1), padding=(1, 1), bias=False, padding_mode=reflect)
                (convl2g): Conv2d(16, 48, kernel_size=(3, 3), stride=(1, 1), padding=(1, 1), bias=False, padding_mode=reflect)
                (convg2l): Conv2d(48, 16, kernel_size=(3, 3), stride=(1, 1), padding=(1, 1), bias=False, padding_mode=reflect)
                (convg2g): SpectralTransform(
                  (downsample): Identity()
                  (conv1): Sequential(
                    (0): Conv2d(48, 24, kernel_size=(1, 1), stride=(1, 1), bias=False)
                    (1): ReLU(inplace=True)
                  )
                  (fu): FourierUnit(
                    (conv_layer): Conv2d(48, 48, kernel_size=(1, 1), stride=(1, 1), bias=False)
                    (relu): ReLU()
                  )
                  (lfu): FourierUnit(
                    (conv_layer): Conv2d(48, 48, kernel_size=(1, 1), stride=(1, 1), bias=False)
                    (relu): ReLU()
                  )
                  (conv2): Conv2d(24, 48, kernel_size=(1, 1), stride=(1, 1), bias=False)
                )
                (gate): Conv2d(64, 2, kernel_size=(1, 1), stride=(1, 1))
              )
              (act_l): ReLU(inplace=True)
              (act_g): ReLU(inplace=True)
            )
            (conv2): FFC_BN_ACT(
              (ffc): FFC(
                (convl2l): Conv2d(16, 16, kernel_size=(3, 3), stride=(1, 1), padding=(1, 1), bias=False, padding_mode=reflect)
                (convl2g): Conv2d(16, 48, kernel_size=(3, 3), stride=(1, 1), padding=(1, 1), bias=False, padding_mode=reflect)
                (convg2l): Conv2d(48, 16, kernel_size=(3, 3), stride=(1, 1), padding=(1, 1), bias=False, padding_mode=reflect)
                (convg2g): SpectralTransform(
                  (downsample): Identity()
                  (conv1): Sequential(
                    (0): Conv2d(48, 24, kernel_size=(1, 1), stride=(1, 1), bias=False)
                    (1): ReLU(inplace=True)
                  )
                  (fu): FourierUnit(
                    (conv_layer): Conv2d(48, 48, kernel_size=(1, 1), stride=(1, 1), bias=False)
                    (relu): ReLU()
                  )
                  (lfu): FourierUnit(
                    (conv_layer): Conv2d(48, 48, kernel_size=(1, 1), stride=(1, 1), bias=False)
                    (relu): ReLU()
                  )
                  (conv2): Conv2d(24, 48, kernel_size=(1, 1), stride=(1, 1), bias=False)
                )
                (gate): Conv2d(64, 2, kernel_size=(1, 1), stride=(1, 1))
              )
              (act_l): ReLU(inplace=True)
              (act_g): ReLU(inplace=True)
            )
          )
          (concat_layer): ConcatTupleLayer()
        )
      )
    )
    (conv0): SynthesisLayer(
      (affine): FullyConnectedLayer()
    )
    (conv1): SynthesisLayer(
      (affine): FullyConnectedLayer()
    )
    (torgb): ToRGBLayer(
…
      (torgb): ToRGBLayer(
        (affine): FullyConnectedLayer()
      )
    )
    (b16): SynthesisBlock(
      (ffc_skip): ModuleList()
      (conv0): SynthesisLayer(
        (affine): FullyConnectedLayer()
      )
      (conv1): SynthesisLayer(
        (affine): FullyConnectedLayer()
      )
      (torgb): ToRGBLayer(
        (affine): FullyConnectedLayer()
      )
    )
    (b32): SynthesisBlock(
      (ffc_skip): ModuleList(
        (0): FFCSkipLayer(
          (ffc_act): FFCBlock(
            (ffc_block): FFCResnetBlock(
              (conv1): FFC_BN_ACT(
                (ffc): FFC(
                  (convl2l): Conv2d(128, 128, kernel_size=(3, 3), stride=(1, 1), padding=(1, 1), bias=False, padding_mode=reflect)
                  (convl2g): Conv2d(128, 384, kernel_size=(3, 3), stride=(1, 1), padding=(1, 1), bias=False, padding_mode=reflect)
                  (convg2l): Conv2d(384, 128, kernel_size=(3, 3), stride=(1, 1), padding=(1, 1), bias=False, padding_mode=reflect)
                  (convg2g): SpectralTransform(
                    (downsample): Identity()
                    (conv1): Sequential(
                      (0): Conv2d(384, 192, kernel_size=(1, 1), stride=(1, 1), bias=False)
                      (1): ReLU(inplace=True)
                    )
                    (fu): FourierUnit(
                      (conv_layer): Conv2d(384, 384, kernel_size=(1, 1), stride=(1, 1), bias=False)
                      (relu): ReLU()
                    )
                    (lfu): FourierUnit(
                      (conv_layer): Conv2d(384, 384, kernel_size=(1, 1), stride=(1, 1), bias=False)
                      (relu): ReLU()
                    )
                    (conv2): Conv2d(192, 384, kernel_size=(1, 1), stride=(1, 1), bias=False)
                  )
                  (gate): Conv2d(512, 2, kernel_size=(1, 1), stride=(1, 1))
                )
                (act_l): ReLU(inplace=True)
                (act_g): ReLU(inplace=True)
              )
              (conv2): FFC_BN_ACT(
                (ffc): FFC(
                  (convl2l): Conv2d(128, 128, kernel_size=(3, 3), stride=(1, 1), padding=(1, 1), bias=False, padding_mode=reflect)
                  (convl2g): Conv2d(128, 384, kernel_size=(3, 3), stride=(1, 1), padding=(1, 1), bias=False, padding_mode=reflect)
                  (convg2l): Conv2d(384, 128, kernel_size=(3, 3), stride=(1, 1), padding=(1, 1), bias=False, padding_mode=reflect)
                  (convg2g): SpectralTransform(
                    (downsample): Identity()
                    (conv1): Sequential(
                      (0): Conv2d(384, 192, kernel_size=(1, 1), stride=(1, 1), bias=False)
                      (1): ReLU(inplace=True)
                    )
                    (fu): FourierUnit(
                      (conv_layer): Conv2d(384, 384, kernel_size=(1, 1), stride=(1, 1), bias=False)
                      (relu): ReLU()
                    )
                    (lfu): FourierUnit(
                      (conv_layer): Conv2d(384, 384, kernel_size=(1, 1), stride=(1, 1), bias=False)
                      (relu): ReLU()
                    )
                    (conv2): Conv2d(192, 384, kernel_size=(1, 1), stride=(1, 1), bias=False)
                  )
                  (gate): Conv2d(512, 2, kernel_size=(1, 1), stride=(1, 1))
                )
                (act_l): ReLU(inplace=True)
                (act_g): ReLU(inplace=True)
              )
            )
            (concat_layer): ConcatTupleLayer()
          )
        )
      )
      (conv0): SynthesisLayer(
        (affine): FullyConnectedLayer()
      )
      (conv1): SynthesisLayer(
        (affine): FullyConnectedLayer()
      )
      (torgb): ToRGBLayer(
        (affine): FullyConnectedLayer()
      )
    )
    (b64): SynthesisBlock(
      (ffc_skip): ModuleList(
        (0): FFCSkipLayer(
          (ffc_act): FFCBlock(
            (ffc_block): FFCResnetBlock(
              (conv1): FFC_BN_ACT(
                (ffc): FFC(
                  (convl2l): Conv2d(64, 64, kernel_size=(3, 3), stride=(1, 1), padding=(1, 1), bias=False, padding_mode=reflect)
                  (convl2g): Conv2d(64, 192, kernel_size=(3, 3), stride=(1, 1), padding=(1, 1), bias=False, padding_mode=reflect)
                  (convg2l): Conv2d(192, 64, kernel_size=(3, 3), stride=(1, 1), padding=(1, 1), bias=False, padding_mode=reflect)
                  (convg2g): SpectralTransform(
                    (downsample): Identity()
                    (conv1): Sequential(
                      (0): Conv2d(192, 96, kernel_size=(1, 1), stride=(1, 1), bias=False)
                      (1): ReLU(inplace=True)
                    )
                    (fu): FourierUnit(
                      (conv_layer): Conv2d(192, 192, kernel_size=(1, 1), stride=(1, 1), bias=False)
                      (relu): ReLU()
                    )
                    (lfu): FourierUnit(
                      (conv_layer): Conv2d(192, 192, kernel_size=(1, 1), stride=(1, 1), bias=False)
                      (relu): ReLU()
                    )
                    (conv2): Conv2d(96, 192, kernel_size=(1, 1), stride=(1, 1), bias=False)
                  )
                  (gate): Conv2d(256, 2, kernel_size=(1, 1), stride=(1, 1))
                )
                (act_l): ReLU(inplace=True)
                (act_g): ReLU(inplace=True)
              )
              (conv2): FFC_BN_ACT(
                (ffc): FFC(
                  (convl2l): Conv2d(64, 64, kernel_size=(3, 3), stride=(1, 1), padding=(1, 1), bias=False, padding_mode=reflect)
                  (convl2g): Conv2d(64, 192, kernel_size=(3, 3), stride=(1, 1), padding=(1, 1), bias=False, padding_mode=reflect)
                  (convg2l): Conv2d(192, 64, kernel_size=(3, 3), stride=(1, 1), padding=(1, 1), bias=False, padding_mode=reflect)
                  (convg2g): SpectralTransform(
                    (downsample): Identity()
                    (conv1): Sequential(
                      (0): Conv2d(192, 96, kernel_size=(1, 1), stride=(1, 1), bias=False)
                      (1): ReLU(inplace=True)
                    )
                    (fu): FourierUnit(
                      (conv_layer): Conv2d(192, 192, kernel_size=(1, 1), stride=(1, 1), bias=False)
                      (relu): ReLU()
                    )
                    (lfu): FourierUnit(
                      (conv_layer): Conv2d(192, 192, kernel_size=(1, 1), stride=(1, 1), bias=False)
                      (relu): ReLU()
                    )
                    (conv2): Conv2d(96, 192, kernel_size=(1, 1), stride=(1, 1), bias=False)
                  )
                  (gate): Conv2d(256, 2, kernel_size=(1, 1), stride=(1, 1))
                )
                (act_l): ReLU(inplace=True)
                (act_g): ReLU(inplace=True)
              )
            )
            (concat_layer): ConcatTupleLayer()
          )
        )
      )
      (conv0): SynthesisLayer(
        (affine): FullyConnectedLayer()
      )
      (conv1): SynthesisLayer(
        (affine): FullyConnectedLayer()
      )
      (torgb): ToRGBLayer(
        (affine): FullyConnectedLayer()
      )
    )
    (b128): SynthesisBlock(
      (ffc_skip): ModuleList(
        (0): FFCSkipLayer(
          (ffc_act): FFCBlock(
            (ffc_block): FFCResnetBlock(
              (conv1): FFC_BN_ACT(
                (ffc): FFC(
                  (convl2l): Conv2d(32, 32, kernel_size=(3, 3), stride=(1, 1), padding=(1, 1), bias=False, padding_mode=reflect)
                  (convl2g): Conv2d(32, 96, kernel_size=(3, 3), stride=(1, 1), padding=(1, 1), bias=False, padding_mode=reflect)
                  (convg2l): Conv2d(96, 32, kernel_size=(3, 3), stride=(1, 1), padding=(1, 1), bias=False, padding_mode=reflect)
                  (convg2g): SpectralTransform(
                    (downsample): Identity()
                    (conv1): Sequential(
                      (0): Conv2d(96, 48, kernel_size=(1, 1), stride=(1, 1), bias=False)
                      (1): ReLU(inplace=True)
                    )
                    (fu): FourierUnit(
                      (conv_layer): Conv2d(96, 96, kernel_size=(1, 1), stride=(1, 1), bias=False)
                      (relu): ReLU()
                    )
                    (lfu): FourierUnit(
                      (conv_layer): Conv2d(96, 96, kernel_size=(1, 1), stride=(1, 1), bias=False)
                      (relu): ReLU()
                    )
                    (conv2): Conv2d(48, 96, kernel_size=(1, 1), stride=(1, 1), bias=False)
                  )
                  (gate): Conv2d(128, 2, kernel_size=(1, 1), stride=(1, 1))
                )
                (act_l): ReLU(inplace=True)
                (act_g): ReLU(inplace=True)
              )
              (conv2): FFC_BN_ACT(
                (ffc): FFC(
                  (convl2l): Conv2d(32, 32, kernel_size=(3, 3), stride=(1, 1), padding=(1, 1), bias=False, padding_mode=reflect)
                  (convl2g): Conv2d(32, 96, kernel_size=(3, 3), stride=(1, 1), padding=(1, 1), bias=False, padding_mode=reflect)
                  (convg2l): Conv2d(96, 32, kernel_size=(3, 3), stride=(1, 1), padding=(1, 1), bias=False, padding_mode=reflect)
                  (convg2g): SpectralTransform(
                    (downsample): Identity()
                    (conv1): Sequential(
                      (0): Conv2d(96, 48, kernel_size=(1, 1), stride=(1, 1), bias=False)
                      (1): ReLU(inplace=True)
                    )
                    (fu): FourierUnit(
                      (conv_layer): Conv2d(96, 96, kernel_size=(1, 1), stride=(1, 1), bias=False)
                      (relu): ReLU()
                    )
                    (lfu): FourierUnit(
                      (conv_layer): Conv2d(96, 96, kernel_size=(1, 1), stride=(1, 1), bias=False)
                      (relu): ReLU()
                    )
                    (conv2): Conv2d(48, 96, kernel_size=(1, 1), stride=(1, 1), bias=False)
                  )
                  (gate): Conv2d(128, 2, kernel_size=(1, 1), stride=(1, 1))
                )
                (act_l): ReLU(inplace=True)
                (act_g): ReLU(inplace=True)
              )
            )
            (concat_layer): ConcatTupleLayer()
          )
        )
      )
      (conv0): SynthesisLayer(
        (affine): FullyConnectedLayer()
      )
      (conv1): SynthesisLayer(
        (affine): FullyConnectedLayer()
      )
      (torgb): ToRGBLayer(
        (affine): FullyConnectedLayer()
      )
    )
    (b256): SynthesisBlock(
      (ffc_skip): ModuleList(
        (0): FFCSkipLayer(
          (ffc_act): FFCBlock(
            (ffc_block): FFCResnetBlock(
              (conv1): FFC_BN_ACT(
                (ffc): FFC(
                  (convl2l): Conv2d(16, 16, kernel_size=(3, 3), stride=(1, 1), padding=(1, 1), bias=False, padding_mode=reflect)
                  (convl2g): Conv2d(16, 48, kernel_size=(3, 3), stride=(1, 1), padding=(1, 1), bias=False, padding_mode=reflect)
                  (convg2l): Conv2d(48, 16, kernel_size=(3, 3), stride=(1, 1), padding=(1, 1), bias=False, padding_mode=reflect)
                  (convg2g): SpectralTransform(
                    (downsample): Identity()
                    (conv1): Sequential(
                      (0): Conv2d(48, 24, kernel_size=(1, 1), stride=(1, 1), bias=False)
                      (1): ReLU(inplace=True)
                    )
                    (fu): FourierUnit(
                      (conv_layer): Conv2d(48, 48, kernel_size=(1, 1), stride=(1, 1), bias=False)
                      (relu): ReLU()
                    )
                    (lfu): FourierUnit(
                      (conv_layer): Conv2d(48, 48, kernel_size=(1, 1), stride=(1, 1), bias=False)
                      (relu): ReLU()
                    )
                    (conv2): Conv2d(24, 48, kernel_size=(1, 1), stride=(1, 1), bias=False)
                  )
                  (gate): Conv2d(64, 2, kernel_size=(1, 1), stride=(1, 1))
                )
                (act_l): ReLU(inplace=True)
                (act_g): ReLU(inplace=True)
              )
              (conv2): FFC_BN_ACT(
                (ffc): FFC(
                  (convl2l): Conv2d(16, 16, kernel_size=(3, 3), stride=(1, 1), padding=(1, 1), bias=False, padding_mode=reflect)
                  (convl2g): Conv2d(16, 48, kernel_size=(3, 3), stride=(1, 1), padding=(1, 1), bias=False, padding_mode=reflect)
                  (convg2l): Conv2d(48, 16, kernel_size=(3, 3), stride=(1, 1), padding=(1, 1), bias=False, padding_mode=reflect)
                  (convg2g): SpectralTransform(
                    (downsample): Identity()
                    (conv1): Sequential(
                      (0): Conv2d(48, 24, kernel_size=(1, 1), stride=(1, 1), bias=False)
                      (1): ReLU(inplace=True)
                    )
                    (fu): FourierUnit(
                      (conv_layer): Conv2d(48, 48, kernel_size=(1, 1), stride=(1, 1), bias=False)
                      (relu): ReLU()
                    )
                    (lfu): FourierUnit(
                      (conv_layer): Conv2d(48, 48, kernel_size=(1, 1), stride=(1, 1), bias=False)
                      (relu): ReLU()
                    )
                    (conv2): Conv2d(24, 48, kernel_size=(1, 1), stride=(1, 1), bias=False)
                  )
                  (gate): Conv2d(64, 2, kernel_size=(1, 1), stride=(1, 1))
                )
                (act_l): ReLU(inplace=True)
                (act_g): ReLU(inplace=True)
              )
            )
            (concat_layer): ConcatTupleLayer()
          )
        )
      )
      (conv0): SynthesisLayer(
        (affine): FullyConnectedLayer()
      )
      (conv1): SynthesisLayer(
        (affine): FullyConnectedLayer()
…
